cat_model.pkl (torch, 26714 bytes, 4 tensors)

weight f4 [2, 50]
0	0xbbcfb1dd	-0.0063383416
1	0x3bed9bb0	0.0072512254
2	0x3c30a12d	0.010780615
3	0xbc836937	-0.016041381
4	0xbc8e73cf	-0.017389206
5	0xbc73493c	-0.014849003
6	0x3aa8f964	0.0012891707
7	0xbbabcf09	-0.0052431864
8	0xbb644bc2	-0.0034835194
9	0xbc1ad63d	-0.009450492
10	0xb71e667b	-9.4413945e-06
11	0x3c737721	0.0148599455
12	0x3c21a729	0.009866514
13	0xba6b61ee	-0.0008979131
14	0x3b1eca51	0.0024229477
15	0xbc5e4edb	-0.013568605
16	0xbc922daf	-0.01784405
17	0xbbf0c33e	-0.0073474934
18	0x3c247ae2	0.010039063
19	0xbc922d96	-0.017844003
20	0xbc7d80aa	-0.01547257
21	0xbaf344f0	-0.0018559974
22	0x3c220986	0.009889966
23	0x3998a70f	0.00029116168
24	0x3b969192	0.00459499
25	0xbbba6314	-0.0056880806
26	0x3bfce955	0.007718245
27	0x3c649a0b	0.013952742
28	0xbba174fe	-0.0049272766
29	0x3c297d90	0.010344878
30	0x3c633d4a	0.013869593
31	0xbb751065	-0.0037393805
32	0x3c1efffd	0.009704587
33	0xbabb2b5b	-0.0014279889
34	0xbc03c2b5	-0.008042027
35	0x3c7d5586	0.015462285
36	0xbb34546e	-0.0027516144
37	0x3b161f0a	0.0022906684
38	0xbc51fbfd	-0.012816426
39	0xbc11d299	-0.008900308
40	0xbc62567d	-0.013814566
41	0xbb8c4cdf	-0.0042816247
42	0x3acf6b9e	0.0015824919
43	0x3be14cbb	0.006875602
44	0x3c5c7e5b	0.01345786
45	0x3a953491	0.0011383464
46	0xbc8cf4cb	-0.01720657
47	0xba3df8b8	-0.000724684
48	0xbbc15eeb	-0.0059012077
49	0x3c7f499b	0.015581514
50	0xbc173515	-0.009228964
51	0xbb127a90	-0.0022350885
52	0xbb8b0f2d	-0.0042437525
53	0xbac0d8f8	-0.0014713099
54	0xbb3a4e73	-0.0028428107
55	0x3abe7349	0.0014530207
56	0x3b1fe466	0.002439761
57	0x3c08d217	0.008350871
58	0x3b8498cd	0.0040465356
59	0x3b81d433	0.0039620637
60	0x3bbf804a	0.0058441507
61	0x3c60b420	0.01371482
62	0xbbed70d7	-0.0072461176
63	0xba69f8c3	-0.0008925313
64	0xbb3ce022	-0.0028820117
65	0x3b54adcf	0.003245223
66	0xbb10f64b	-0.0022119458
67	0x3c176bf7	0.009242049
68	0x3bc45132	0.0059911245
69	0xba90daba	-0.0011051514
70	0x3aec9e10	0.0018052477
71	0x3b3aadaf	0.002848487
72	0xbaef0938	-0.0018237
73	0xbc1d818e	-0.009613408
74	0x3bb52f62	0.00552933
75	0x37212497	9.604867e-06
76	0xbc91b976	-0.01778863
77	0xbb3f9999	-0.0029235838
78	0x3b551a46	0.003251688
79	0xba35af5b	-0.0006930732
80	0xbc0e0d89	-0.008670219
81	0x3b49fa0d	0.0030819208
82	0xbbc97aa6	-0.006148654
83	0xbc880e3f	-0.016608356
84	0xbb2e19f9	-0.0026565774
85	0x3b61139d	0.0034343966
86	0x3c493bef	0.012282356
87	0x3b18d4cd	0.0023320199
88	0xbba9caad	-0.0051816315
89	0x3b7a87e7	0.0038227977
90	0x3b0f920f	0.0021907126
91	0xbc9389dd	-0.018010074
92	0x3bde79ea	0.0067894356
93	0x3c8ff197	0.017571254
94	0xbbf72b03	-0.007542969
95	0x3b382b01	0.0028101804
96	0xbbf39285	-0.007433238
97	0x37779193	1.4756241e-05
98	0x3c6ad0a2	0.0143319685
99	0xbb944a67	-0.004525471

weight f4 [11, 50]
0	0x3b07d7d2	0.0020728004
1	0x3bfb7282	0.0076735625
2	0xbc90f235	-0.017693618
3	0x3b3a9acf	0.002847362
4	0xbc3c50b3	-0.01149385
5	0x3b65680b	0.0035004641
6	0x3c234f7d	0.009967682
7	0x3af3ef21	0.0018610695
8	0x3acb49ab	0.0015509626
9	0xbb9eee7d	-0.0048502074
10	0xbc8446e3	-0.016147083
11	0xba118a39	-0.0005551908
12	0xbc077605	-0.008267884
13	0xbc6ed5b7	-0.014577321
14	0xbbe88b53	-0.007096687
15	0xbc380332	-0.011231231
16	0xbb776414	-0.003774886
17	0x3c4efe6a	0.012633899
18	0x3bfbc842	0.0076837847
19	0xbc09fa7f	-0.008421539
20	0x3c3d9353	0.011570769
21	0x3a5778b7	0.0008219587
22	0x393882a0	0.00017596269
23	0x3c0ddd9d	0.008658794
24	0xbc5faae5	-0.013651584
25	0xbb508169	-0.0031815416
26	0xbaaae829	-0.001303916
27	0x3bc8c2ea	0.006126751
28	0x3c523545	0.012830083
29	0xbb973f1b	-0.004615677
30	0x3c8975c4	0.016779788
31	0x3ad69fe7	0.0016374559
32	0x3bbe0421	0.005798832
33	0xbc38df29	-0.011283674
34	0x3c92b9eb	0.017910918
35	0x3b6a9b1d	0.003579802
36	0x3b9bd8b2	0.0047560567
37	0xbb97d521	-0.0046335612
38	0x3c13fa16	0.009031793
39	0x3c41c5d9	0.011826956
40	0x3c1f7cf8	0.009734385
41	0x3c977219	0.018487023
42	0x3ae97407	0.0017811068
43	0xbb923670	-0.004462056
44	0xbbcf288e	-0.006321973
45	0xbb155a24	-0.0022789324
46	0x3a57026a	0.0008201959
47	0x3ac70892	0.0015185049
48	0xbb5a2954	-0.0033288794
49	0xba8bd4d7	-0.001066829
50	0xbc1bfdce	-0.009520961
51	0xbc54a153	-0.012977916
52	0xbbecdc07	-0.0072283777
53	0xbbc03285	-0.0058653974
54	0xba06d2e4	-0.00051431195
55	0xbb53aad4	-0.0032297866
56	0xbc11ed00	-0.008906603
57	0xbb72e241	-0.0037061127
58	0x3bb13221	0.005407587
59	0xbc11d861	-0.008901686
60	0xb999ea64	-0.0002935707
61	0xbc6dc855	-0.014513095
62	0xbc7b5006	-0.015338903
63	0x3b912040	0.0044288933
64	0x3b58dda4	0.0033091092
65	0x3c164149	0.009170839
66	0xbc98a9cb	-0.018635651
67	0x3b5c5bea	0.003362412
68	0x3c06e09b	0.008232261
69	0x3c4370b8	0.01192873
70	0x3bade6bc	0.0053070467
71	0xbc031db4	-0.008002687
72	0x3c596901	0.013269664
73	0xbbe34b29	-0.00693645
74	0x3bc02cb3	0.0058647036
75	0xbc0cb471	-0.008587942
76	0x3bc6560f	0.0060527395
77	0x3c2d32fc	0.010571238
78	0xbc60417d	-0.013687489
79	0x3a3cb1e6	0.000719814
80	0xbb887ae7	-0.0041650417
81	0x3c542b70	0.012949809
82	0x3a412dcd	0.00073691906
83	0x3c962cbe	0.018331882
84	0x3c0d205c	0.008613672
85	0xbc3031c5	-0.0107540535
86	0xbafc30d7	-0.001924063
87	0x3ac92ce1	0.0015348458
88	0xbb5fb61c	-0.0034135645
89	0x3b658b80	0.0035025775
90	0x3bd674fb	0.006544707
91	0xbc485a27	-0.012228525
92	0x3ac5a90e	0.001508029
93	0x3bb33286	0.0054686693
94	0x3c064d42	0.008197131
95	0xbc9e21ab	-0.019303164
96	0x3b7f48a6	0.0038953214
97	0xbba5430d	-0.0050433935
98	0x3b334c1e	0.0027358602
99	0xbbe835cf	-0.0070864926
100	0xbc43270a	-0.011911163
101	0x3b91b584	0.004446687
102	0xb9f4e202	-0.00046707696
103	0xbbb8daf3	-0.005641335
104	0xbbd1ffa1	-0.006408647
105	0xbb3682a4	-0.0027848864
106	0x3abd3dc5	0.0014437964
107	0x39e903a5	0.00044443939
108	0x3c2dd270	0.010609254
109	0x3ac1c3c5	0.0014783075
110	0x3b759813	0.0037474677
111	0x3a6f5aa6	0.0009130634
112	0xbac9c090	-0.0015392471
113	0x3c8e25b9	0.017351972
114	0xba2b54f6	-0.00065357925
115	0x3b65ac66	0.0035045384
116	0xbbad0cc4	-0.005281063
117	0x3c73d3d2	0.014882045
118	0xbc422192	-0.011848824
119	0x3c9c3d2b	0.019072136
120	0xbc153966	-0.009107923
121	0xbba74240	-0.005104333
122	0x3c03b92b	0.008039753
123	0xbc272833	-0.010202455
124	0xbb9184e1	-0.004440889
125	0xbc280732	-0.010255622
126	0x3bac5644	0.005259307
127	0x3bef71af	0.0073072533
128	0xbbc5676b	-0.0060242913
129	0xbc1340d5	-0.008987625
130	0xbc12fcd5	-0.008971413
131	0x3c175abe	0.009237943
132	0xbc3a06e4	-0.011354182
133	0x393363eb	0.00017107993
134	0xbbaea8eb	-0.005330195
135	0xbb4bf57c	-0.0031121662
136	0x3b9d1705	0.004794004
137	0xbb5b3739	-0.0033449663
138	0x3b6515e2	0.003495567
139	0x3a1a2fd7	0.00058817625
140	0xbb0e43e9	-0.0021707958
141	0xbbc51e2d	-0.00601556
142	0xb9ee54b7	-0.00045458015
143	0xbb3f9914	-0.0029235529
144	0xbc1665fd	-0.009179589
145	0x3b3c8427	0.0028765292
146	0xbbf511a1	-0.007478908
147	0x3c975220	0.018471777
148	0xbb384fd5	-0.0028123755
149	0x3bc08b26	0.005875963
150	0x3bc8b2dd	0.006124838
151	0xbb9574b5	-0.0045610317
152	0x3c3d7ef9	0.011565917
153	0xbab8a1cf	-0.0014086309
154	0xbb6173a1	-0.0034401196
155	0xba2fb41d	-0.0006702559
156	0x3c160ed8	0.009158812
157	0xbb14ffbf	-0.0022735444
158	0x3ae942b7	0.0017796372
159	0x3c389a0f	0.011267199
160	0x3c36f48f	0.011166706
161	0x3b6c2d6e	0.003603782
162	0x3be4b724	0.00697984
163	0x3c47ff77	0.012206904
164	0xbb290326	-0.002578923
165	0xbc62379b	-0.013807203
166	0xbbb0ffd9	-0.005401593
167	0x3b2b67f6	0.0026154495
168	0x3c154a89	0.009112009
169	0xbba71640	-0.005099088
170	0x3bcfb867	0.006339121
171	0xbbc52544	-0.0060164053
172	0x3ba1f896	0.004942964
173	0xbb00b20f	-0.0019637381
174	0xbbb7656a	-0.0055968063
175	0x3c5d8fc6	0.013523048
176	0xbb95bb47	-0.0045694443
177	0xbc18a09b	-0.009315635
178	0xbc3a0a0d	-0.011354935
179	0xbb9465e3	-0.0045287474
180	0x3a7c43a3	0.0009623116
181	0xbb8c3cee	-0.0042797243
182	0x3bca88cb	0.006180858
183	0x3a7bd1e6	0.00096061674
184	0x3bb5070f	0.005524523
185	0x3c102e33	0.008800077
186	0x3c0b04c3	0.008485022
187	0x3b198064	0.0023422474
188	0x3c0b5912	0.008505123
189	0x3c822d75	0.015890816
190	0x3be1551b	0.0068766004
191	0xba74623e	-0.00093225006
192	0x3b1caa56	0.002390524
193	0x3c57b70c	0.0131662
194	0xbab2f973	-0.0013654664
195	0x3c28ab30	0.0102947205
196	0xbb004996	-0.001957511
197	0x3c24ec2b	0.010066072
198	0x3b0ae926	0.0021196096
199	0xbc9d1099	-0.019172953
200	0x3b3f2db3	0.0029171526
201	0x3c4a74e0	0.012356967
202	0xbb418de7	-0.0029534043
203	0xbba9aa58	-0.0051777773
204	0xba3dfb38	-0.00072472123
205	0xbb23c6d4	-0.0024990337
206	0x3b10d504	0.0022099623
207	0xbb59840b	-0.0033190276
208	0xbc527f4f	-0.012847736
209	0x39bc5ced	0.0003592739
210	0xbc656072	-0.014000045
211	0x3befb72f	0.0073155384
212	0xbbcb5f49	-0.0062064272
213	0xbba53b00	-0.0050424337
214	0x3c0d22e2	0.008614274
215	0x3b4340cb	0.0029793258
216	0xba612218	-0.0008588149
217	0x3c3d21d5	0.011543711
218	0xbb66d0ca	-0.0035219663
219	0x3bb610af	0.005556188
220	0xbb96d1e0	-0.004602656
221	0xbbe5c720	-0.007012263
222	0x3a65ad70	0.0008761501
223	0xbc04fa2c	-0.008116286
224	0x3bb05dd3	0.0053822785
225	0xbc861510	-0.016367465
226	0xba3de76e	-0.00072442635
227	0x39bd0e61	0.00036059602
228	0x3c567a84	0.013090733
229	0xbb6c3f73	-0.003604856
230	0xbb50a8a2	-0.0031838794
231	0x3c8769b5	0.016529897
232	0x3c8f39a9	0.01748355
233	0xbc1c53c0	-0.009541452
234	0x3ba837ed	0.00513362
235	0x3c10656c	0.008813243
236	0xbbcb150b	-0.006197577
237	0xbc29b2a2	-0.010357531
238	0x3adfb67c	0.0017067934
239	0xb93a80b3	-0.00017786286
240	0x3c7bece9	0.015376308
241	0x3c727fbd	0.014800963
242	0xbc860a4a	-0.016362328
243	0x3c657355	0.014004548
244	0x3c71090c	0.01471163
245	0x3b4a235c	0.003084383
246	0x39811bba	0.00024625455
247	0xbc934f57	-0.017982168
248	0xbb8d03f7	-0.004303451
249	0x3b6d670b	0.0036224748
250	0xbb26430b	-0.002536955
251	0x3baf6fe4	0.0053539146
252	0xbc682e15	-0.014171143
253	0xb9f02442	-0.0004580338
254	0x3c85e521	0.016344609
255	0xbb731b17	-0.0037095004

weight f4 [2, 1]
0	0xbc8a6bce	-0.016897108
1	0xb702bf8a	-7.7932e-06

weight f4 [11, 1]
0	0x3c6f18bb	0.014593299
1	0xbb19c400	-0.0023462772
2	0x3c584494	0.013199944
3	0xbb5f29d9	-0.0034052043
4	0xbbadcc79	-0.005303916
5	0x3b8701a9	0.004120071
6	0x3b44acf7	0.0030010322
7	0x3b2818fd	0.002564966
8	0x3bb39079	0.005479869
9	0x3c6487e1	0.013948412
10	0x3a2caf9b	0.00065874466
